data.pth (torch, 26559 bytes, 6 tensors)

l1.weight f4 [8, 445]
00000000: 5ed7 1b3f ef01 303e 2874 853f 2a51 d63e
00000010: 51f4 a43e 79af 27bd 70d2 323f 387e ac3f
00000020: 1c3d 933e 7a89 4bbf 3777 9b3f 5d00 943f
00000030: c8de d43e 70b2 2e3f b792 333f be17 443e
00000040: 60e7 da3e 5c0e de3e 9ebe 103f 9e2d 463d
00000050: b01c 603c f5fc a9bd 9870 a9bf ae36 0d3f
00000060: 2ad2 0e3e 24db e03e 857b 86bd c92a 42bf
00000070: 0458 c2be 042f 0840 1b60 55be 86e3 0ebf
00000080: f477 503f 3262 17bf 7554 613c 77d3 593e
00000090: ca44 f43d a95a 9b3e cfc6 e33e 679d f5bc
000000a0: 3cf1 0ebe 688e 873e c538 0b3f 3057 893f
000000b0: bdf1 d2bd d777 e6be a425 403f c633 643e
000000c0: c424 953f fd26 c0be 5870 d63e 2fdd 3f3f
000000d0: b32c d4bc ab7b 20be b077 543f 7c8c 903e
000000e0: ecff 0c3f 0a5f 183f 7dfa 03be 18ac 0dbf
000000f0: 1feb 913f 7035 a03e b39b 9e3f f8c6 103f
00000100: 4c2d b9be 0aa1 acbe 7b8c 363f 32bc 8c3e
00000110: 0713 ab3e b600 553e e753 85be 4b01 2c3d
00000120: 3435 dd3e f103 183f 0ca4 7d3f ab0d 88bf
00000130: 51b5 843e d294 113f a73a af3e b131 3cbf
00000140: a321 833f ef2e 5dbc 1fc9 cdbe fe47 1abe
00000150: 3fb4 5e3f a621 733f c114 193f ebf8 a6bf
00000160: 38fd 48bd 59bb 55be cc9f 08bf 1063 773f
00000170: a725 a5bf 4ff0 a03f bba5 843f 988d 6bbf
00000180: c5f7 a13f ffba 483f 64b1 54bf e3cb ed3f
00000190: 8820 983f 0e9c 57bf 003d 07be 61df 8b3f
000001a0: 52ee 113f 042d d1be a554 40bf afbe 9e3f
000001b0: a4de f93e a1ec 78bf 88b7 e33d ad85 b63e
000001c0: 7b91 933f ec8a 65bf a10b f73e 29ee bfbe
000001d0: 627c 353f 3e53 5b3e 7d5d 99bf ca59 9e3f
000001e0: 4947 d7be 2aca adbd 4036 7f3e 078f 433f
000001f0: d351 a43f 238f eebc e571 05c0 d75f fc3e
00000200: 957e 933f 786d 593e ccbc 6bbe f86c 873e
00000210: 5636 5dbf 90cf 043d fc6c 843f 1fa5 aa3e
00000220: 020b cfbd 89ba 4dbf 9983 41bf 5129 b8bf
00000230: 208e 98bf 4e20 7a3f bf39 063f 94e1 9c3f
00000240: 8126 5ebf 51d3 9a3f 9ee6 453e a595 8bbe
00000250: 33e5 96bf 9388 883e cc90 4a3e 43cf 4b3f
00000260: b660 0e3e 13da bc3d 9b03 7a3f 6096 c83e
00000270: 5771 f1bc 0a98 7a3e de4e 45bf 7627 d53e
00000280: 8828 9b3f 9822 6c3f 8faf 923e 5a9b cdbe
00000290: d69b 88bf 6e9c 03be 82f1 6d3f 7e7e 02bf
000002a0: 43ea 3c3f 1a6a 523f 80b1 24bf f2bf 843f
000002b0: 713e 0340 49a9 a4be d5ea ae3f f5a6 5f3f
000002c0: 5f7e 68be 58eb 003f f08b 2ebd de72 12bf
000002d0: 6093 bfbe de45 e63e 7837 1cbf 3a14 1bbf
000002e0: 8120 5a3f ea8f 743f ec42 2f3f 49fc 6fbf
000002f0: 1085 55bf b2f3 be3f 87ea 53bf cc2a 603d
00000300: 8050 4d3f dce3 743f 9e96 093f 48c9 f13e
00000310: 3599 c7bd 1dec 923f 9d9e 8f3f 0be2 c93e
00000320: 822f e03e abed aa3e 9ac6 943f 7042 fb3e
00000330: 5ad1 ae3f 4d79 fe3e e631 aebe 7e58 c7bd
00000340: 0bf2 81bf 0c31 edbe 36f4 cd3e 96bf 2e3f
00000350: a55f 53bf 164a df3d 51c5 00bd 35cf f23d
00000360: bf41 6abf a867 5d3f 7846 9e3e 5aa5 833f
00000370: 917c b33e f6d9 903f f5cb c7bf c672 a2be
00000380: 1dc6 213e 7f5f 9abd 98b0 7abe 764d 34bf
00000390: 5539 85bf 53de 07bf f476 1abd c05b aabf
000003a0: 5fd0 c63c 7c21 c43f 8f47 433f 2e43 3bbf
000003b0: cfc9 7cbf 2007 593b 1b3f 51be d7a3 6abf
000003c0: 79ad 0bbe 7d12 a7bc 31f5 d9be ba65 5b3f
000003d0: 481f 7a3f 2c31 713f 06d3 79be c08a 30bd
000003e0: 2300 803f 7b8c be3f 9062 98be 5cef 1f3f
000003f0: 73cf 30bf 36c5 0cbf 0102 143f c3f3 133f
0.608755 0.17188238 1.0426073 0.41858798 0.3221765 -0.04093883 0.6985235 1.3476019
0.2875756 -0.7950665 1.2145756 1.1562611 0.4157622 0.68241024 0.70145744 0.19149682
0.4275465 0.4337033 0.5654086 0.048383348 0.013678715 -0.08300201 -1.3237486 0.5516156
0.13947359 0.4391719 -0.06566528 -0.75846535 -0.37957776 2.1278696 -0.20837443 -0.55815923
0.81433034 -0.5913421 0.013753046 0.21272074 0.11927183 0.30342606 0.44487616 -0.029982282
-0.13959211 0.26475835 0.543835 1.0729733 -0.10300014 -0.45013306 0.75057435 0.22285375
1.1651845 -0.37529746 0.41882586 0.74946874 -0.02590022 -0.15672176 0.8299513 0.2823218
0.55078006 0.5952002 -0.12888522 -0.5534072 1.1399878 0.3129077 1.2391266 0.565536
-0.3616737 -0.33716613 0.71308106 0.27487332 0.33412954 0.20801052 -0.26040575 0.04199342
0.43204653 0.59381014 0.9907844 -1.0629171 0.25919583 0.56867707 0.34224436 -0.73513323
1.024464 -0.013499959 -0.40192506 -0.15066525 0.86993784 0.9497322 0.5979729 -1.3044714
-0.049069613 -0.20872249 -0.5336883 0.9663553 -1.2902116 1.2573336 1.0363077 -0.9201293
1.2653738 0.78410333 -0.83083177 1.8577846 1.1884928 -0.84222496 -0.13206863 1.0927545
0.5700427 -0.40854657 -0.7512916 1.2401942 0.48802674 -0.9723607 0.1111899 0.35648862
1.1528772 -0.896651 0.4825106 -0.3748639 0.7089292 0.21418473 -1.1981655 1.2371151
-0.42046574 -0.08485825 0.24923038 0.7639012 1.2837471 -0.029120987 -2.0850766 0.4929187
1.1523005 0.21233165 -0.23021239 0.26450324 -0.86411035 0.03242451 1.0345759 0.33329102
-0.101095214 -0.80362755 -0.7559143 -1.4387609 -1.1918373 0.97705543 0.52431864 1.2256341
-0.867775 1.2095739 0.19326255 -0.27262607 -1.1788696 0.26666698 0.19781798 0.7961313
0.1390408 0.09221282 0.9766175 0.39177227 -0.02947299 0.24472061 -0.77073467 0.4163167
1.2121744 0.92240286 0.28649566 -0.40157586 -1.0672557 -0.12852642 0.92946637 -0.5097426
0.73794955 0.8219315 -0.64333344 1.0371077 2.0506861 -0.32160404 1.3665415 0.8736413
-0.22704457 0.50359106 -0.042613924 -0.57206523 -0.37417126 0.4497518 -0.6102214 -0.6057774
0.8520585 0.95532095 0.6846149 -0.9374433 -0.8340616 1.491812 -0.82779735 0.054728314
0.8020096 0.95660186 0.5374545 0.47223878 -0.09746019 1.1478306 1.122028 0.3943027
0.43786246 0.3338445 1.1623108 0.49074125 1.3657639 0.4970192 -0.34022444 -0.097336754
-1.0151991 -0.46326482 0.4022538 0.68261087 -0.82567817 0.10902803 -0.031438176 0.11855928
-0.9150657 0.8648629 0.30913138 1.0284836 0.35055974 1.1316516 -1.5609118 -0.3172819
0.1579823 -0.07537746 -0.24481428 -0.70430696 -1.0408121 -0.53073615 -0.0377111 -1.330925
0.024269281 1.5322719 0.76281065 -0.73149383 -0.98745435 0.003311582 -0.20434229 -0.9165625
-0.13640393 -0.020394558 -0.4256988 0.857021 0.9770398 0.94215655 -0.24396905 -0.043101072
1.0000042 1.4886621 -0.29762697 0.6247461 -0.6906654 -0.5498842 0.5781556 0.57793826

l1.bias f4 [8]
00000000: 9408 a93f 4027 c23f ebec 0240 e3df 1b40
00000010: 7aa4 a73f bd08 0b40 1af9 ba3f 3c59 7e3f
1.3205743 1.5168228 2.0457103 2.43554 1.3097069 2.1724083 1.460727 0.9935491

l2.weight f4 [8, 8]
00000000: cf71 2f40 3eda 0abf 6291 6c40 1f7a 0c40
00000010: 2933 e0bf 4190 2a40 75ea 0340 4c44 09c0
00000020: e87a e73f 91e0 6a3f 675f 13c0 e4e9 2540
00000030: 057b 3140 9b87 2540 2e28 963f bb4d 9540
00000040: 126b eabf cb0a 2d40 653d 2740 8002 f63f
00000050: 199a 0c40 0ba7 bd3f 0faf 88c0 cb81 093e
00000060: 995c 3f3e bd63 5340 dc1e 3d40 39ef 45c0
00000070: d0c8 8940 ebff 5d40 59c2 1640 c72b 80be
00000080: 15a7 41c0 7715 c53f b84d 8d40 9f83 c23f
00000090: 0bfd cabe 2b92 52be e1f8 0540 6a09 96bf
000000a0: 2d42 1240 4717 b13e ec7d 1e3f c1dd 8140
000000b0: 0403 0940 7d94 62bf 8997 a440 4c56 a840
000000c0: ce8c 8340 8901 6c40 ec2c 85bf f15c 2340
000000d0: 8b6c 8abf 1635 8340 fc34 6cbf 0ba9 b2bf
000000e0: b3fd 363e 43f4 b5be 024a fe3a bc88 6ebe
000000f0: f940 c2be f1c0 7dbe a5fd 263e 386f 89be
2.7413213 -0.5423926 3.6963735 2.1949537 -1.7515613 2.6650546 2.0611851 -2.1447935
1.8084383 0.9174891 -2.302698 2.5924006 2.7731335 2.5864017 1.1731012 4.6657386
-1.8313925 2.7037838 2.6131222 1.9219513 2.1969054 1.4816602 -4.2713695 0.13428418
0.18687667 3.3029625 2.9550085 -3.092726 4.3057632 3.468745 2.355612 -0.250334
-3.0258229 1.5397176 4.415737 1.5196418 -0.3964618 -0.20563571 2.0933154 -1.1721623
2.285289 0.34588072 0.6191089 4.0583196 2.140809 -0.88507825 5.143498 5.2605343
4.110938 3.6875937 -1.0404334 2.5525477 -1.0814375 4.10023 -0.9226835 -1.3957838
0.17870216 -0.3553792 0.0019400718 -0.23294348 -0.37940195 -0.24780633 0.16307695 -0.26842666

l2.bias f4 [8]
00000000: 66b4 0d40 2dc0 393f 9850 ea3f 2cba dc3e
00000010: 8bac 083f 149d 583f 1d2c 39be f668 d7be
2.2141356 0.7255886 1.8305845 0.43110788 0.5338828 0.8461468 -0.18083234 -0.42072266

l3.weight f4 [68, 8]
00000000: 6fb2 283d fb83 bcbf 3c02 a93f d61c bfbe
00000010: c22c a03e a64f a8bf 5fc6 29c0 f596 53bd
00000020: 3495 96c0 b333 163f ebf1 743f 0319 11bf
00000030: 8ef9 9b3e 812d 313e 12fb 07c0 0dfa 91bd
00000040: 0cbd 7bc0 b923 773e 0552 483e 0649 513d
00000050: 1c3a 98c0 c5bc b03e b636 e0bd 79bc a4bd
00000060: 3b4d 6cbf bfd2 4ebf ed24 46bf aecc 6cbf
00000070: d5fa f0be 1ad6 c4bf 2450 66bf a42f b1bd
00000080: 2a61 b0bf 5b01 3bbf b62c 703f a582 9dbe
00000090: ae82 60bd 80a1 cbbf cd3f b5be 3971 1dbe
000000a0: 1f50 a2be 4041 753e ee3d 05bd 8102 7fc0
000000b0: 5187 49c0 057e d43d b94e 023f 002c 6b3d
000000c0: 03ad 2c3f 0421 2dc0 b42f 4d3f 3e5d 11c0
000000d0: 02a2 393f 3c17 92bf cbea 16bf c4f3 a63d
000000e0: f66d 4ec0 0967 0d3e 15a6 20bc 25ef c43e
000000f0: 9f89 e8bf d326 1cbf 568a 063d 0727 983d
00000100: 2d0c 69bf 2bac 3cbf 3e60 d0bf f3fc 923e
00000110: 96cf a53e ed31 2ebf 843f 5ebf 02b7 03be
00000120: 4502 adbf cb04 2d3e 730a 00c0 23e6 b0be
00000130: 6686 3ac0 84e6 b8bd 3adf 383e d84b 8ebd
00000140: d3d6 613d 8e2d 16bf 679a e6bf 1836 7fbe
00000150: 4027 16bf d87b 8dbf 36d3 32be ff89 7c3e
00000160: 88a0 c6bf de7a 963d 3415 9ebf 2743 a8bf
00000170: 33ef c4be 89c1 bf3e bc8e 31bf 2b3b c5be
00000180: 3812 b2bf 56a9 6fbe 9e70 783e a262 72bf
00000190: 8c2a 2abf 31e4 a3bf c032 003f c67b 073d
000001a0: 6aa2 9abf 8335 d0be 8550 333f 9e5b 0f3f
000001b0: fcff 263e 7bfc 79c0 2a4d 263e be0a 02be
000001c0: 6191 97c0 8a2b 24be 6c32 c93e ebe9 a83e
000001d0: e543 3b3f 6479 f1be 69fe 52bf 9298 09bd
000001e0: c3c7 92bf 0463 9cbe a303 f7be f368 9b3e
000001f0: 1b9e 76bf 993b 81bf 74c2 05bf a2ea 823e
00000200: 8ff9 a7bc 2926 30bf ab86 89bf 0f0b fdbf
00000210: 6673 61be 2b15 29bf c507 a13e cea1 acbe
00000220: d574 893e 79bb 03bf 52b2 5cbf 22a6 5abf
00000230: 1c34 c2bf 063d f5bf 2a80 3c3f 5dc9 c6be
00000240: d9cc 3c3f 7772 afbf 8833 f0bc 8ac7 943e
00000250: c06e 2c3d 4d5a 95c0 e4a6 c93e 00eb d2be
00000260: e8de efbf 4557 333d 4745 133f f03f 083f
00000270: 0040 03c0 1117 11c0 3926 793e 6efa 863d
00000280: c16b a2bf bfd6 03be 102f b6bf 908c 2a3f
00000290: b6ab 45c0 4e6d 78bf c92a 7f3e 8e06 83be
000002a0: 6c9a 0fc0 7cbf 07be 5dd8 9f3e 586b 0bbf
000002b0: f4c6 813c c583 cfbe d6aa 36bf 3357 b63d
000002c0: 6fdb 1cbf 6118 d0be d03c 8fbe ae4f e6be
000002d0: 06c8 1bbf 6562 4cbd d495 f6bf 97d1 a5be
000002e0: cd1c 5bbe b51c 2cbe 6ced 3ebf 2462 b2bf
000002f0: 761d 42c0 8bd9 49bf a737 303f a6ca b4be
00000300: a204 8dc0 2deb 3b3e ddce 3fbf 6ae1 7f3f
00000310: 2046 12be 3fe9 43be 5fc9 93bf 9d98 8a3e
00000320: 7649 593e 95c4 86bd cb81 34c0 1847 78c0
00000330: e5ed 653f a21e 9c3e 9406 79bf 044e c1be
00000340: 0f23 053f c759 3bbf 1120 79c0 7a99 01c0
00000350: 81af b33e fd2f 03bf c0a6 953e 0da0 c3bd
00000360: 1f81 53bf d5c3 203f e0c5 2dbf c645 15c0
00000370: d4bc 86c0 6b23 213f e491 3abf 93b3 0b3d
00000380: dcb7 76bf 2bc6 3f3f a5b7 6fc0 7a42 0cc0
00000390: 8284 a3bf 3f4f 223d b00f f73e 3983 843d
000003a0: 9f90 85bf cca8 223f 0883 483f d5bd 77bf
000003b0: 368a 8dc0 567e 8dbf 9163 3c3e 5786 563e
000003c0: 21ae 783e 8305 77bf d619 873e 7595 87bf
000003d0: dbae 3abc 4f22 12c0 4b53 363e 520f 4abe
000003e0: 45f8 1ebf 2dc0 70be 4d65 8d3f 110a 0ac0
000003f0: 42fd d33e d6dc babe bb8a 12c0 546c 2ebe
0.041185793 -1.4727777 1.3203807 -0.37326688 0.31284148 -1.3149307 -2.6527326 -0.051657636
-4.7057133 0.58672637 0.9568164 -0.5667879 0.30463833 0.17302515 -2.124699 -0.071277715
-3.9334135 0.24134721 0.19562538 0.05109503 -4.7570934 0.3451902 -0.10947935 -0.08043761
-0.92305344 -0.80790323 -0.77400094 -0.92499816 -0.4706637 -1.5377839 -0.89966035 -0.08651665
-1.3779652 -0.73048943 0.93818223 -0.30763736 -0.054812126 -1.5908661 -0.3540024 -0.15375222
-0.31701753 0.23950672 -0.032529764 -3.9845278 -3.148884 0.10375599 0.5090137 0.05741501
0.67451495 -2.70514 0.80150914 -2.271316 0.7251283 -1.141334 -0.58952016 0.08151963
-3.2254615 0.13808836 -0.009805222 0.38463703 -1.8166999 -0.6099674 0.03284677 0.07429319
-0.91034204 -0.7370021 -1.6279371 0.2870861 0.32384938 -0.6804493 -0.8681567 -0.1286278
-1.3516318 0.1689636 -2.0006378 -0.3455058 -2.914453 -0.09028342 0.18053904 -0.0694806
0.055136513 -0.5866326 -1.801587 -0.24922979 -0.5865364 -1.1053419 -0.17463383 0.24662016
-1.551774 0.07347654 -1.2350221 -1.3145493 -0.38463745 0.37452343 -0.6935842 -0.38521704
-1.391181 -0.2340444 0.2426171 -0.9468175 -0.6647117 -1.2804013 0.5007744 0.033077024
-1.2080815 -0.40665826 0.7004474 0.5599917 0.16308588 -3.9060352 0.16240373 -0.1269941
-4.7364964 -0.16032234 0.3929628 0.32990965 0.73150474 -0.47162926 -0.8241945 -0.033592768
-1.1467212 -0.30544293 -0.48244962 0.30353507 -0.96335 -1.0096313 -0.52249837 0.25569636
-0.020504741 -0.6880823 -1.0744222 -1.9769 -0.22016677 -0.66047925 0.3145124 -0.33717197
0.26846948 -0.51457936 -0.86209595 -0.8540975 -1.5172153 -1.9159248 0.7363306 -0.38825503
0.7375007 -1.3706807 -0.029321447 0.29058486 0.042097807 -4.667273 0.3938514 -0.41194916
-1.87399 0.0437844 0.57527584 0.5322256 -2.0507812 -2.2670329 0.24330987 0.065907344
-1.2689134 -0.12874888 -1.4233112 0.6662073 -3.0886054 -0.97041786 0.24918665 -0.25590938
-2.2438002 -0.13256639 0.3121976 -0.5446067 0.015841939 -0.4053022 -0.71354425 0.08903351
-0.6127233 -0.406436 -0.27976084 -0.44982666 -0.60852087 -0.049898524 -1.9264474 -0.32386467
-0.21397705 -0.16807826 -0.7458103 -1.39362 -3.0330482 -0.7884757 0.6883492 -0.35310858
-4.4068155 0.18351431 -0.74925023 0.9995333 -0.14284563 -0.19131945 -1.1545829 0.2706956
0.2121943 -0.06580464 -2.820422 -3.8793392 0.89816123 0.3049212 -0.9727566 -0.37754834
0.5200662 -0.73183864 -3.8925822 -2.0249925 0.35094836 -0.512451 0.29228783 -0.09552012
-0.826189 0.62798816 -0.6788006 -2.3323836 -4.2105503 0.6294467 -0.7287886 0.034106802
-0.963743 0.74911755 -3.7455838 -2.1915574 -1.2774813 0.039626356 0.48254156 0.06470341
-1.043476 0.63538814 0.7832494 -0.96774036 -4.4231215 -1.105418 0.18397357 0.20949684
0.24285175 -0.96492785 0.263869 -1.0592486 -0.011394228 -2.283344 0.17805211 -0.19732407
-0.6209758 -0.23510809 1.104654 -2.1568644 0.41404158 -0.3649661 -2.2897174 -0.17033511

l3.bias f4 [68]
00000000: 7da2 953f 8398 493f 7ed0 983e abd4 08bf
00000010: a5b3 eebe 8b11 f83e 1888 07be 14cb 83bf
00000020: a91c 92bf eea9 08bf 5321 ee3d f86c dfbe
00000030: 6f3e 89bf 1b9d 3abc fdb4 9dbf 1231 ad3d
00000040: 231a 85bf 4afa 70bd 1ed3 16bf d6e7 07be
00000050: ab98 8cbd 9e84 4cbf 753a f83e cb4a 34bf
00000060: 54c2 273c c0b4 993e c1bb 41be 344f 43bd
00000070: c895 15bd 9922 323f 7ae8 993d bcab 3d3f
00000080: df6d 8e3e 8505 d73e f6c1 2bbe fd3e a2be
00000090: ec27 e53d ebc9 57bf dacb 7fbd 5bdf 303e
000000a0: 17f2 31be b2b7 ec3e 14a1 31bf 58eb b73e
000000b0: 1efe 183f c2a1 b93e 0de1 c83e da93 bf3e
000000c0: e94b 713d 0d3e c2be 763d f13e 34a8 72be
000000d0: 1bb9 24be ca53 39bf 1b65 9cbe 86e0 ca3e
000000e0: fac4 b93e 22bb c83e bb25 ac3e d962 bebe
000000f0: 59d7 893e 9ce6 0d3e fd14 efbe 2de0 793d
00000100: 15ea 023d 3616 fe3e e79c 813e d535 413f
1.1690212 0.7874834 0.29846567 -0.53449506 -0.46621433 0.48450884 -0.1323551 -1.029635
-1.1414996 -0.5338429 0.1162745 -0.43637824 -1.0722178 -0.011389996 -1.2320858 0.08456625
-1.0398601 -0.058832444 -0.5891589 -0.13272032 -0.068650566 -0.7988986 0.484821 -0.70426625
0.0102392025 0.30020714 -0.18919279 -0.047682956 -0.036519796 0.6958404 0.075150445 0.7409017
0.278182 0.419964 -0.16773209 -0.3168868 0.11189255 -0.8429248 -0.062450267 0.17272703
-0.17377506 0.46233898 -0.6938641 0.3592174 0.5976275 0.36256224 0.392342 0.3741749
0.058910284 -0.37937966 0.47117203 -0.23696977 -0.16086237 -0.72393477 -0.30545887 0.39624423
0.36283094 0.3920527 0.33622536 -0.3718479 0.2692211 0.13857502 -0.466957 0.061004806
0.03196152 0.4962632 0.2531502 0.75472766
